…
I1018 11:01:26.165586 30062 net.cpp:322] The NetState phase (0) differed from the phase (1) specified by a rule in layer data
I1018 11:01:26.165938 30062 net.cpp:58] Initializing net from parameters: 
name: "YTC"
state {
  phase: TRAIN
  level: 0
  stage: ""
}
layer {
  name: "data"
  type: "Data"
  top: "data"
  top: "label"
  include {
    phase: TRAIN
  }
  transform_param {
    mean_file: "/home/qiaoshishi/datasets/YTC/ytc_train_mean_file.binaryproto"
  }
  data_param {
    source: "/home/qiaoshishi/datasets/YTC/ytc_train_shuffle_lmdb"
    batch_size: 900
    backend: LMDB
    class_per_batch: 6
    clip_per_class: 5
  }
}
layer {
  name: "slicerLabel"
  type: "Slice"
  bottom: "label"
  top: "label_s"
  top: "label_v"
  slice_param {
    slice_point: 1
    axis: 1
  }
}
layer {
  name: "silence_lab"
  type: "Silence"
  bottom: "label_v"
}
layer {
  name: "conv1_1"
  type: "Convolution"
  bottom: "data"
  top: "conv1_1"
  param {
    lr_mult: 1
    decay_mult: 1
  }
  param {
    lr_mult: 2
    decay_mult: 0
  }
  convolution_param {
    num_output: 32
    pad: 1
    kernel_size: 3
    weight_filler {
      type: "xavier"
    }
    bias_filler {
      type: "constant"
      value: 0
    }
  }
}
layer {
  name: "relu1_1"
  type: "ReLU"
  bottom: "conv1_1"
  top: "conv1_1"
}
layer {
  name: "conv1_2"
  type: "Convolution"
  bottom: "conv1_1"
  top: "conv1_2"
  param {
    lr_mult: 1
    decay_mult: 1
  }
  param {
    lr_mult: 2
    decay_mult: 0
  }
  convolution_param {
    num_output: 64
    pad: 1
    kernel_size: 3
    weight_filler {
      type: "xavier"
    }
    bias_filler {
      type: "constant"
      value: 0
    }
  }
}
layer {
  name: "relu1_2"
  type: "ReLU"
  bottom: "conv1_2"
  top: "conv1_2"
}
layer {
  name: "pool1"
  type: "Pooling"
  bottom: "conv1_2"
  top: "pool1"
  pooling_param {
    pool: MAX
    kernel_size: 2
    stride: 2
  }
}
layer {
  name: "conv2_1"
  type: "Convolution"
  bottom: "pool1"
  top: "conv2_1"
  param {
    lr_mult: 1
    decay_mult: 1
  }
  param {
    lr_mult: 2
    decay_mult: 0
  }
  convolution_param {
    num_output: 64
    pad: 1
    kernel_size: 3
    weight_filler {
      type: "xavier"
    }
    bias_filler {
      type: "constant"
      value: 0
    }
  }
}
layer {
  name: "relu2_1"
  type: "ReLU"
  bottom: "conv2_1"
  top: "conv2_1"
}
layer {
  name: "conv2_2"
  type: "Convolution"
  bottom: "conv2_1"
  top: "conv2_2"
  param {
    lr_mult: 1
    decay_mult: 1
  }
  param {
    lr_mult: 2
    decay_mult: 0
  }
  convolution_param {
    num_output: 128
    pad: 1
    kernel_size: 3
    weight_filler {
      type: "xavier"
    }
    bias_filler {
      type: "constant"
      value: 0
    }
  }
}
layer {
  name: "relu2_2"
  type: "ReLU"
  bottom: "conv2_2"
  top: "conv2_2"
}
layer {
  name: "pool2"
  type: "Pooling"
  bottom: "conv2_2"
  top: "pool2"
  pooling_param {
    pool: MAX
    kernel_size: 2
    stride: 2
  }
}
layer {
  name: "conv3_1"
  type: "Convolution"
  bottom: "pool2"
  top: "conv3_1"
  param {
    lr_mult: 1
    decay_mult: 1
  }
  param {
    lr_mult: 2
    decay_mult: 0
  }
  convolution_param {
    num_output: 96
    pad: 1
    kernel_size: 3
    weight_filler {
      type: "xavier"
    }
    bias_filler {
      type: "constant"
      value: 0
    }
  }
}
layer {
  name: "relu3_1"
  type: "ReLU"
  bottom: "conv3_1"
  top: "conv3_1"
}
layer {
  name: "conv3_2"
  type: "Convolution"
  bottom: "conv3_1"
  top: "conv3_2"
  param {
    lr_mult: 1
    decay_mult: 1
  }
  param {
    lr_mult: 2
    decay_mult: 0
  }
  convolution_param {
    num_output: 192
    pad: 1
    kernel_size: 3
    weight_filler {
      type: "xavier"
    }
    bias_filler {
      type: "constant"
      value: 0
    }
  }
}
layer {
  name: "relu3_2"
  type: "ReLU"
  bottom: "conv3_2"
  top: "conv3_2"
}
layer {
  name: "pool3"
  type: "Pooling"
  bottom: "conv3_2"
  top: "pool3"
  pooling_param {
    pool: MAX
    kernel_size: 2
    stride: 2
  }
}
layer {
  name: "conv4_1"
  type: "Convolution"
  bottom: "pool3"
  top: "conv4_1"
  param {
    lr_mult: 1
    decay_mult: 1
  }
  param {
    lr_mult: 2
    decay_mult: 0
  }
  convolution_param {
    num_output: 128
    pad: 1
    kernel_size: 3
    weight_filler {
      type: "xavier"
    }
    bias_filler {
      type: "constant"
      value: 0
    }
  }
}
layer {
  name: "relu4_1"
  type: "ReLU"
  bottom: "conv4_1"
  top: "conv4_1"
}
layer {
  name: "conv4_2"
  type: "Convolution"
  bottom: "conv4_1"
  top: "conv4_2"
  param {
    lr_mult: 1
    decay_mult: 1
  }
  param {
    lr_mult: 2
    decay_mult: 0
  }
  convolution_param {
    num_output: 256
    pad: 1
    kernel_size: 3
    weight_filler {
      type: "xavier"
    }
    bias_filler {
      type: "constant"
      value: 0
    }
  }
}
layer {
  name: "relu4_2"
  type: "ReLU"
  bottom: "conv4_2"
  top: "conv4_2"
}
layer {
  name: "pool4"
  type: "Pooling"
  bottom: "conv4_2"
  top: "pool4"
  pooling_param {
    pool: MAX
    kernel_size: 2
    stride: 2
  }
}
layer {
  name: "conv5_1"
  type: "Convolution"
  bottom: "pool4"
  top: "conv5_1"
  param {
    lr_mult: 1
    decay_mult: 1
  }
  param {
    lr_mult: 2
    decay_mult: 0
  }
  convolution_param {
    num_output: 160
    pad: 1
    kernel_size: 3
    weight_filler {
      type: "xavier"
    }
    bias_filler {
      type: "constant"
      value: 0
    }
  }
}
layer {
  name: "relu5_1"
  type: "ReLU"
  bottom: "conv5_1"
  top: "conv5_1"
}
layer {
  name: "conv5_2"
  type: "Convolution"
  bottom: "conv5_1"
  top: "conv5_2"
  param {
    lr_mult: 1
    decay_mult: 1
  }
  param {
    lr_mult: 2
    decay_mult: 0
  }
  convolution_param {
    num_output: 320
    pad: 1
    kernel_size: 3
    weight_filler {
      type: "xavier"
    }
    bias_filler {
      type: "constant"
      value: 0
    }
  }
}
layer {
  name: "pool5"
  type: "Pooling"
  bottom: "conv5_2"
  top: "pool5"
  pooling_param {
    pool: AVE
    global_pooling: true
  }
}
layer {
  name: "drop5_s"
  type: "Dropout"
  bottom: "pool5"
  top: "pool5_s"
  dropout_param {
    dropout_ratio: 0.4
  }
}
layer {
  name: "slicerPool5"
  type: "Slice"
  bottom: "pool5_s"
  top: "pool5_s1"
  top: "pool5_s2"
  top: "pool5_s3"
  top: "pool5_s4"
  top: "pool5_s5"
  top: "pool5_s6"
  top: "pool5_s7"
  top: "pool5_s8"
  slice_param {
    slice_point: 50
    slice_point: 150
    slice_point: 200
    slice_point: 300
    slice_point: 350
    slice_point: 450
    slice_point: 500
    axis: 0
  }
}
layer {
  name: "slicerLabels"
  type: "Slice"
  bottom: "label_s"
  top: "label_s1"
  top: "label_s2"
  top: "label_s3"
  top: "label_s4"
  top: "label_s5"
  top: "label_s6"
  top: "label_s7"
  top: "label_s8"
  slice_param {
    slice_point: 50
    slice_point: 150
    slice_point: 200
    slice_point: 300
    slice_point: 350
    slice_point: 450
    slice_point: 500
    axis: 0
  }
}
layer {
  name: "concatPool5s"
  type: "Concat"
  bottom: "pool5_s1"
  bottom: "pool5_s3"
  bottom: "pool5_s5"
  bottom: "pool5_s7"
  top: "pool5_s_cat"
  concat_param {
    axis: 0
  }
}
layer {
  name: "concatLabels"
  type: "Concat"
  bottom: "label_s1"
  bottom: "label_s3"
  bottom: "label_s5"
  bottom: "label_s7"
  top: "label_s_cat"
  concat_param {
    axis: 0
  }
}
layer {
  name: "silence"
  type: "Silence"
  bottom: "pool5_s2"
  bottom: "pool5_s4"
  bottom: "pool5_s6"
  bottom: "pool5_s8"
  bottom: "label_s2"
  bottom: "label_s4"
  bottom: "label_s6"
  bottom: "label_s8"
}
layer {
  name: "ip1_s"
  type: "InnerProduct"
  bottom: "pool5_s_cat"
  top: "ip1_s"
  param {
    name: "ip1_w"
    lr_mult: 1
    decay_mult: 1
  }
  param {
    name: "ip1_b"
    lr_mult: 2
    decay_mult: 0
  }
  inner_product_param {
    num_output: 12
    weight_filler {
      type: "xavier"
    }
    bias_filler {
      type: "constant"
    }
  }
}
layer {
  name: "sigmoid_s"
  type: "Sigmoid"
  bottom: "ip1_s"
  top: "ip1_s"
}
layer {
  name: "loss_s"
  type: "BoundTripletLoss"
  bottom: "ip1_s"
  bottom: "label_s_cat"
  top: "loss_hash_s"
  propagate_down: true
  propagate_down: false
  bound_triplet_loss_param {
    margin: 1
    tradeoff: 0
    tradeoff2: 0
  }
}
layer {
  name: "temporal_pool"
  type: "TemporalPooling"
  bottom: "pool5"
  bottom: "label"
  top: "tmp_pool"
  top: "merge_label"
  propagate_down: true
  propagate_down: false
  temporal_pooling_param {
    operation: MAX
    clips_num: 30
  }
}
layer {
  name: "drop5"
  type: "Dropout"
  bottom: "tmp_pool"
  top: "tmp_pool"
  dropout_param {
    dropout_ratio: 0.4
  }
}
layer {
  name: "ip1"
  type: "InnerProduct"
  bottom: "tmp_pool"
  top: "ip1"
  param {
    name: "ip1_w"
    lr_mult: 1
    decay_mult: 1
  }
  param {
    name: "ip1_b"
    lr_mult: 2
    decay_mult: 0
  }
  inner_product_param {
    num_output: 12
    weight_filler {
      type: "xavier"
    }
    bias_filler {
      type: "constant"
    }
  }
}
layer {
  name: "sigmoid"
  type: "Sigmoid"
  bottom: "ip1"
  top: "ip1"
}
layer {
  name: "loss"
  type: "BoundTripletLoss"
  bottom: "ip1"
  bottom: "merge_label"
  top: "loss_hash"
  loss_weight: 0.1
  propagate_down: true
  propagate_down: false
  bound_triplet_loss_param {
    margin: 1
    tradeoff: 0
    tradeoff2: 0
  }
}
I1018 11:01:26.166260 30062 layer_factory.hpp:77] Creating layer data
I1018 11:01:26.167418 30062 net.cpp:100] Creating Layer data
I1018 11:01:26.167433 30062 net.cpp:408] data -> data
I1018 11:01:26.167546 30062 net.cpp:408] data -> label
…
I1018 11:01:26.259763 30068 data_reader.cpp:198] class 41 has 2193 samples
I1018 11:01:26.259769 30068 data_reader.cpp:198] class 42 has 6107 samples
I1018 11:01:26.259776 30068 data_reader.cpp:198] class 43 has 3810 samples
I1018 11:01:26.259783 30068 data_reader.cpp:198] class 44 has 5708 samples
I1018 11:01:26.259788 30068 data_reader.cpp:198] class 45 has 2576 samples
I1018 11:01:26.259796 30068 data_reader.cpp:198] class 46 has 3361 samples
I1018 11:01:26.260049 30062 data_layer.cpp:41] output data size: 900,3,64,64
I1018 11:01:26.370652 30062 net.cpp:150] Setting up data
I1018 11:01:26.370738 30062 net.cpp:157] Top shape: 900 3 64 64 (11059200)
I1018 11:01:26.370751 30062 net.cpp:157] Top shape: 900 2 1 1 (1800)
I1018 11:01:26.370757 30062 net.cpp:165] Memory required for data: 44244000
I1018 11:01:26.370774 30062 layer_factory.hpp:77] Creating layer label_data_1_split
I1018 11:01:26.370817 30062 net.cpp:100] Creating Layer label_data_1_split
I1018 11:01:26.370828 30062 net.cpp:434] label_data_1_split <- label
I1018 11:01:26.370858 30062 net.cpp:408] label_data_1_split -> label_data_1_split_0
I1018 11:01:26.370882 30062 net.cpp:408] label_data_1_split -> label_data_1_split_1
I1018 11:01:26.371006 30062 net.cpp:150] Setting up label_data_1_split
I1018 11:01:26.371019 30062 net.cpp:157] Top shape: 900 2 1 1 (1800)
I1018 11:01:26.371026 30062 net.cpp:157] Top shape: 900 2 1 1 (1800)
I1018 11:01:26.371032 30062 net.cpp:165] Memory required for data: 44258400
I1018 11:01:26.371037 30062 layer_factory.hpp:77] Creating layer slicerLabel
I1018 11:01:26.371063 30062 net.cpp:100] Creating Layer slicerLabel
I1018 11:01:26.371070 30062 net.cpp:434] slicerLabel <- label_data_1_split_0
I1018 11:01:26.371079 30062 net.cpp:408] slicerLabel -> label_s
I1018 11:01:26.371094 30062 net.cpp:408] slicerLabel -> label_v
I1018 11:01:26.371148 30062 net.cpp:150] Setting up slicerLabel
I1018 11:01:26.371160 30062 net.cpp:157] Top shape: 900 1 1 1 (900)
I1018 11:01:26.371166 30062 net.cpp:157] Top shape: 900 1 1 1 (900)
I1018 11:01:26.371170 30062 net.cpp:165] Memory required for data: 44265600
I1018 11:01:26.371176 30062 layer_factory.hpp:77] Creating layer silence_lab
I1018 11:01:26.371184 30062 net.cpp:100] Creating Layer silence_lab
I1018 11:01:26.371189 30062 net.cpp:434] silence_lab <- label_v
I1018 11:01:26.371197 30062 net.cpp:150] Setting up silence_lab
I1018 11:01:26.371201 30062 net.cpp:165] Memory required for data: 44265600
I1018 11:01:26.371206 30062 layer_factory.hpp:77] Creating layer conv1_1
I1018 11:01:26.371232 30062 net.cpp:100] Creating Layer conv1_1
I1018 11:01:26.371239 30062 net.cpp:434] conv1_1 <- data
I1018 11:01:26.371253 30062 net.cpp:408] conv1_1 -> conv1_1
I1018 11:01:26.911619 30062 net.cpp:150] Setting up conv1_1
I1018 11:01:26.911716 30062 net.cpp:157] Top shape: 900 32 64 64 (117964800)
I1018 11:01:26.911725 30062 net.cpp:165] Memory required for data: 516124800
I1018 11:01:26.911763 30062 layer_factory.hpp:77] Creating layer relu1_1
I1018 11:01:26.911784 30062 net.cpp:100] Creating Layer relu1_1
I1018 11:01:26.911792 30062 net.cpp:434] relu1_1 <- conv1_1
I1018 11:01:26.911800 30062 net.cpp:395] relu1_1 -> conv1_1 (in-place)
I1018 11:01:26.911924 30062 net.cpp:150] Setting up relu1_1
I1018 11:01:26.911948 30062 net.cpp:157] Top shape: 900 32 64 64 (117964800)
I1018 11:01:26.911953 30062 net.cpp:165] Memory required for data: 987984000
I1018 11:01:26.911967 30062 layer_factory.hpp:77] Creating layer conv1_2
I1018 11:01:26.911988 30062 net.cpp:100] Creating Layer conv1_2
I1018 11:01:26.911993 30062 net.cpp:434] conv1_2 <- conv1_1
I1018 11:01:26.912003 30062 net.cpp:408] conv1_2 -> conv1_2
I1018 11:01:26.913154 30062 net.cpp:150] Setting up conv1_2
I1018 11:01:26.913177 30062 net.cpp:157] Top shape: 900 64 64 64 (235929600)
I1018 11:01:26.913193 30062 net.cpp:165] Memory required for data: 1931702400
I1018 11:01:26.913206 30062 layer_factory.hpp:77] Creating layer relu1_2
I1018 11:01:26.913216 30062 net.cpp:100] Creating Layer relu1_2
I1018 11:01:26.913221 30062 net.cpp:434] relu1_2 <- conv1_2
I1018 11:01:26.913239 30062 net.cpp:395] relu1_2 -> conv1_2 (in-place)
I1018 11:01:26.913578 30062 net.cpp:150] Setting up relu1_2
I1018 11:01:26.913597 30062 net.cpp:157] Top shape: 900 64 64 64 (235929600)
I1018 11:01:26.913602 30062 net.cpp:165] Memory required for data: 2875420800
I1018 11:01:26.913614 30062 layer_factory.hpp:77] Creating layer pool1
I1018 11:01:26.913627 30062 net.cpp:100] Creating Layer pool1
I1018 11:01:26.913632 30062 net.cpp:434] pool1 <- conv1_2
I1018 11:01:26.913642 30062 net.cpp:408] pool1 -> pool1
I1018 11:01:26.913703 30062 net.cpp:150] Setting up pool1
I1018 11:01:26.913714 30062 net.cpp:157] Top shape: 900 64 32 32 (58982400)
I1018 11:01:26.913718 30062 net.cpp:165] Memory required for data: 3111350400
I1018 11:01:26.913723 30062 layer_factory.hpp:77] Creating layer conv2_1
I1018 11:01:26.913738 30062 net.cpp:100] Creating Layer conv2_1
I1018 11:01:26.913744 30062 net.cpp:434] conv2_1 <- pool1
I1018 11:01:26.913754 30062 net.cpp:408] conv2_1 -> conv2_1
I1018 11:01:26.915135 30062 net.cpp:150] Setting up conv2_1
I1018 11:01:26.915156 30062 net.cpp:157] Top shape: 900 64 32 32 (58982400)
I1018 11:01:26.915170 30062 net.cpp:165] Memory required for data: 3347280000
I1018 11:01:26.915185 30062 layer_factory.hpp:77] Creating layer relu2_1
I1018 11:01:26.915194 30062 net.cpp:100] Creating Layer relu2_1
I1018 11:01:26.915200 30062 net.cpp:434] relu2_1 <- conv2_1
I1018 11:01:26.915207 30062 net.cpp:395] relu2_1 -> conv2_1 (in-place)
I1018 11:01:26.915554 30062 net.cpp:150] Setting up relu2_1
I1018 11:01:26.915570 30062 net.cpp:157] Top shape: 900 64 32 32 (58982400)
I1018 11:01:26.915575 30062 net.cpp:165] Memory required for data: 3583209600
I1018 11:01:26.915585 30062 layer_factory.hpp:77] Creating layer conv2_2
I1018 11:01:26.915606 30062 net.cpp:100] Creating Layer conv2_2
I1018 11:01:26.915611 30062 net.cpp:434] conv2_2 <- conv2_1
I1018 11:01:26.915621 30062 net.cpp:408] conv2_2 -> conv2_2
I1018 11:01:26.917840 30062 net.cpp:150] Setting up conv2_2
I1018 11:01:26.917860 30062 net.cpp:157] Top shape: 900 128 32 32 (117964800)
I1018 11:01:26.917876 30062 net.cpp:165] Memory required for data: 4055068800
I1018 11:01:26.917884 30062 layer_factory.hpp:77] Creating layer relu2_2
I1018 11:01:26.917893 30062 net.cpp:100] Creating Layer relu2_2
I1018 11:01:26.917899 30062 net.cpp:434] relu2_2 <- conv2_2
I1018 11:01:26.917908 30062 net.cpp:395] relu2_2 -> conv2_2 (in-place)
I1018 11:01:26.918228 30062 net.cpp:150] Setting up relu2_2
I1018 11:01:26.918246 30062 net.cpp:157] Top shape: 900 128 32 32 (117964800)
I1018 11:01:26.918251 30062 net.cpp:165] Memory required for data: 4526928000
I1018 11:01:26.918256 30062 layer_factory.hpp:77] Creating layer pool2
I1018 11:01:26.918265 30062 net.cpp:100] Creating Layer pool2
I1018 11:01:26.918285 30062 net.cpp:434] pool2 <- conv2_2
I1018 11:01:26.918295 30062 net.cpp:408] pool2 -> pool2
I1018 11:01:26.918340 30062 net.cpp:150] Setting up pool2
I1018 11:01:26.918350 30062 net.cpp:157] Top shape: 900 128 16 16 (29491200)
I1018 11:01:26.918354 30062 net.cpp:165] Memory required for data: 4644892800
I1018 11:01:26.918359 30062 layer_factory.hpp:77] Creating layer conv3_1
I1018 11:01:26.918375 30062 net.cpp:100] Creating Layer conv3_1
I1018 11:01:26.918380 30062 net.cpp:434] conv3_1 <- pool2
I1018 11:01:26.918390 30062 net.cpp:408] conv3_1 -> conv3_1
I1018 11:01:26.921536 30062 net.cpp:150] Setting up conv3_1
I1018 11:01:26.921558 30062 net.cpp:157] Top shape: 900 96 16 16 (22118400)
I1018 11:01:26.921564 30062 net.cpp:165] Memory required for data: 4733366400
I1018 11:01:26.921577 30062 layer_factory.hpp:77] Creating layer relu3_1
I1018 11:01:26.921586 30062 net.cpp:100] Creating Layer relu3_1
I1018 11:01:26.921591 30062 net.cpp:434] relu3_1 <- conv3_1
I1018 11:01:26.921600 30062 net.cpp:395] relu3_1 -> conv3_1 (in-place)
I1018 11:01:26.921705 30062 net.cpp:150] Setting up relu3_1
I1018 11:01:26.921718 30062 net.cpp:157] Top shape: 900 96 16 16 (22118400)
I1018 11:01:26.921722 30062 net.cpp:165] Memory required for data: 4821840000
I1018 11:01:26.921727 30062 layer_factory.hpp:77] Creating layer conv3_2
I1018 11:01:26.921742 30062 net.cpp:100] Creating Layer conv3_2
I1018 11:01:26.921749 30062 net.cpp:434] conv3_2 <- conv3_1
I1018 11:01:26.921757 30062 net.cpp:408] conv3_2 -> conv3_2
I1018 11:01:26.925143 30062 net.cpp:150] Setting up conv3_2
I1018 11:01:26.925165 30062 net.cpp:157] Top shape: 900 192 16 16 (44236800)
I1018 11:01:26.925170 30062 net.cpp:165] Memory required for data: 4998787200
I1018 11:01:26.925184 30062 layer_factory.hpp:77] Creating layer relu3_2
I1018 11:01:26.925192 30062 net.cpp:100] Creating Layer relu3_2
I1018 11:01:26.925199 30062 net.cpp:434] relu3_2 <- conv3_2
I1018 11:01:26.925207 30062 net.cpp:395] relu3_2 -> conv3_2 (in-place)
I1018 11:01:26.925324 30062 net.cpp:150] Setting up relu3_2
I1018 11:01:26.925338 30062 net.cpp:157] Top shape: 900 192 16 16 (44236800)
I1018 11:01:26.925341 30062 net.cpp:165] Memory required for data: 5175734400
I1018 11:01:26.925346 30062 layer_factory.hpp:77] Creating layer pool3
I1018 11:01:26.925356 30062 net.cpp:100] Creating Layer pool3
I1018 11:01:26.925364 30062 net.cpp:434] pool3 <- conv3_2
I1018 11:01:26.925369 30062 net.cpp:408] pool3 -> pool3
I1018 11:01:26.925413 30062 net.cpp:150] Setting up pool3
I1018 11:01:26.925422 30062 net.cpp:157] Top shape: 900 192 8 8 (11059200)
I1018 11:01:26.925426 30062 net.cpp:165] Memory required for data: 5219971200
I1018 11:01:26.925431 30062 layer_factory.hpp:77] Creating layer conv4_1
I1018 11:01:26.925442 30062 net.cpp:100] Creating Layer conv4_1
I1018 11:01:26.925448 30062 net.cpp:434] conv4_1 <- pool3
I1018 11:01:26.925457 30062 net.cpp:408] conv4_1 -> conv4_1
I1018 11:01:26.929924 30062 net.cpp:150] Setting up conv4_1
I1018 11:01:26.929980 30062 net.cpp:157] Top shape: 900 128 8 8 (7372800)
I1018 11:01:26.929988 30062 net.cpp:165] Memory required for data: 5249462400
I1018 11:01:26.930006 30062 layer_factory.hpp:77] Creating layer relu4_1
I1018 11:01:26.930039 30062 net.cpp:100] Creating Layer relu4_1
I1018 11:01:26.930052 30062 net.cpp:434] relu4_1 <- conv4_1
I1018 11:01:26.930064 30062 net.cpp:395] relu4_1 -> conv4_1 (in-place)
I1018 11:01:26.930240 30062 net.cpp:150] Setting up relu4_1
I1018 11:01:26.930259 30062 net.cpp:157] Top shape: 900 128 8 8 (7372800)
I1018 11:01:26.930267 30062 net.cpp:165] Memory required for data: 5278953600
I1018 11:01:26.930277 30062 layer_factory.hpp:77] Creating layer conv4_2
I1018 11:01:26.930305 30062 net.cpp:100] Creating Layer conv4_2
I1018 11:01:26.930315 30062 net.cpp:434] conv4_2 <- conv4_1
I1018 11:01:26.930327 30062 net.cpp:408] conv4_2 -> conv4_2
I1018 11:01:26.940224 30062 net.cpp:150] Setting up conv4_2
I1018 11:01:26.940269 30062 net.cpp:157] Top shape: 900 256 8 8 (14745600)
I1018 11:01:26.940279 30062 net.cpp:165] Memory required for data: 5337936000
I1018 11:01:26.940340 30062 layer_factory.hpp:77] Creating layer relu4_2
I1018 11:01:26.940358 30062 net.cpp:100] Creating Layer relu4_2
I1018 11:01:26.940371 30062 net.cpp:434] relu4_2 <- conv4_2
I1018 11:01:26.940382 30062 net.cpp:395] relu4_2 -> conv4_2 (in-place)
I1018 11:01:26.940825 30062 net.cpp:150] Setting up relu4_2
I1018 11:01:26.940853 30062 net.cpp:157] Top shape: 900 256 8 8 (14745600)
I1018 11:01:26.940862 30062 net.cpp:165] Memory required for data: 5396918400
I1018 11:01:26.940876 30062 layer_factory.hpp:77] Creating layer pool4
I1018 11:01:26.940894 30062 net.cpp:100] Creating Layer pool4
I1018 11:01:26.940903 30062 net.cpp:434] pool4 <- conv4_2
I1018 11:01:26.940918 30062 net.cpp:408] pool4 -> pool4
I1018 11:01:26.941004 30062 net.cpp:150] Setting up pool4
I1018 11:01:26.941016 30062 net.cpp:157] Top shape: 900 256 4 4 (3686400)
I1018 11:01:26.941025 30062 net.cpp:165] Memory required for data: 5411664000
I1018 11:01:26.941042 30062 layer_factory.hpp:77] Creating layer conv5_1
I1018 11:01:26.941064 30062 net.cpp:100] Creating Layer conv5_1
I1018 11:01:26.941074 30062 net.cpp:434] conv5_1 <- pool4
I1018 11:01:26.941090 30062 net.cpp:408] conv5_1 -> conv5_1
I1018 11:01:26.949127 30062 net.cpp:150] Setting up conv5_1
I1018 11:01:26.949158 30062 net.cpp:157] Top shape: 900 160 4 4 (2304000)
I1018 11:01:26.949168 30062 net.cpp:165] Memory required for data: 5420880000
I1018 11:01:26.949193 30062 layer_factory.hpp:77] Creating layer relu5_1
I1018 11:01:26.949218 30062 net.cpp:100] Creating Layer relu5_1
I1018 11:01:26.949227 30062 net.cpp:434] relu5_1 <- conv5_1
I1018 11:01:26.949239 30062 net.cpp:395] relu5_1 -> conv5_1 (in-place)
I1018 11:01:26.949633 30062 net.cpp:150] Setting up relu5_1
I1018 11:01:26.949656 30062 net.cpp:157] Top shape: 900 160 4 4 (2304000)
I1018 11:01:26.949666 30062 net.cpp:165] Memory required for data: 5430096000
I1018 11:01:26.949673 30062 layer_factory.hpp:77] Creating layer conv5_2
I1018 11:01:26.949707 30062 net.cpp:100] Creating Layer conv5_2
I1018 11:01:26.949715 30062 net.cpp:434] conv5_2 <- conv5_1
I1018 11:01:26.949730 30062 net.cpp:408] conv5_2 -> conv5_2
I1018 11:01:26.958966 30062 net.cpp:150] Setting up conv5_2
I1018 11:01:26.958997 30062 net.cpp:157] Top shape: 900 320 4 4 (4608000)
I1018 11:01:26.959007 30062 net.cpp:165] Memory required for data: 5448528000
I1018 11:01:26.959022 30062 layer_factory.hpp:77] Creating layer pool5
I1018 11:01:26.959043 30062 net.cpp:100] Creating Layer pool5
I1018 11:01:26.959053 30062 net.cpp:434] pool5 <- conv5_2
I1018 11:01:26.959066 30062 net.cpp:408] pool5 -> pool5
I1018 11:01:26.959259 30062 net.cpp:150] Setting up pool5
I1018 11:01:26.959277 30062 net.cpp:157] Top shape: 900 320 1 1 (288000)
I1018 11:01:26.959285 30062 net.cpp:165] Memory required for data: 5449680000
I1018 11:01:26.959292 30062 layer_factory.hpp:77] Creating layer pool5_pool5_0_split
I1018 11:01:26.959308 30062 net.cpp:100] Creating Layer pool5_pool5_0_split
I1018 11:01:26.959316 30062 net.cpp:434] pool5_pool5_0_split <- pool5
I1018 11:01:26.959333 30062 net.cpp:408] pool5_pool5_0_split -> pool5_pool5_0_split_0
I1018 11:01:26.959347 30062 net.cpp:408] pool5_pool5_0_split -> pool5_pool5_0_split_1
I1018 11:01:26.959409 30062 net.cpp:150] Setting up pool5_pool5_0_split
I1018 11:01:26.959421 30062 net.cpp:157] Top shape: 900 320 1 1 (288000)
I1018 11:01:26.959430 30062 net.cpp:157] Top shape: 900 320 1 1 (288000)
I1018 11:01:26.959437 30062 net.cpp:165] Memory required for data: 5451984000
I1018 11:01:26.959444 30062 layer_factory.hpp:77] Creating layer drop5_s
I1018 11:01:26.959471 30062 net.cpp:100] Creating Layer drop5_s
I1018 11:01:26.959480 30062 net.cpp:434] drop5_s <- pool5_pool5_0_split_0
I1018 11:01:26.959491 30062 net.cpp:408] drop5_s -> pool5_s
I1018 11:01:26.959555 30062 net.cpp:150] Setting up drop5_s
I1018 11:01:26.959566 30062 net.cpp:157] Top shape: 900 320 1 1 (288000)
I1018 11:01:26.959574 30062 net.cpp:165] Memory required for data: 5453136000
I1018 11:01:26.959580 30062 layer_factory.hpp:77] Creating layer slicerPool5
I1018 11:01:26.959599 30062 net.cpp:100] Creating Layer slicerPool5
I1018 11:01:26.959632 30062 net.cpp:434] slicerPool5 <- pool5_s
I1018 11:01:26.959645 30062 net.cpp:408] slicerPool5 -> pool5_s1
I1018 11:01:26.959672 30062 net.cpp:408] slicerPool5 -> pool5_s2
I1018 11:01:26.959687 30062 net.cpp:408] slicerPool5 -> pool5_s3
I1018 11:01:26.959704 30062 net.cpp:408] slicerPool5 -> pool5_s4
I1018 11:01:26.959717 30062 net.cpp:408] slicerPool5 -> pool5_s5
I1018 11:01:26.959729 30062 net.cpp:408] slicerPool5 -> pool5_s6
I1018 11:01:26.959741 30062 net.cpp:408] slicerPool5 -> pool5_s7
I1018 11:01:26.959753 30062 net.cpp:408] slicerPool5 -> pool5_s8
I1018 11:01:26.959935 30062 net.cpp:150] Setting up slicerPool5
I1018 11:01:26.959947 30062 net.cpp:157] Top shape: 50 320 1 1 (16000)
I1018 11:01:26.959957 30062 net.cpp:157] Top shape: 100 320 1 1 (32000)
I1018 11:01:26.959966 30062 net.cpp:157] Top shape: 50 320 1 1 (16000)
I1018 11:01:26.959975 30062 net.cpp:157] Top shape: 100 320 1 1 (32000)
I1018 11:01:26.959985 30062 net.cpp:157] Top shape: 50 320 1 1 (16000)
I1018 11:01:26.959993 30062 net.cpp:157] Top shape: 100 320 1 1 (32000)
I1018 11:01:26.960002 30062 net.cpp:157] Top shape: 50 320 1 1 (16000)
I1018 11:01:26.960011 30062 net.cpp:157] Top shape: 400 320 1 1 (128000)
I1018 11:01:26.960018 30062 net.cpp:165] Memory required for data: 5454288000
I1018 11:01:26.960026 30062 layer_factory.hpp:77] Creating layer slicerLabels
I1018 11:01:26.960037 30062 net.cpp:100] Creating Layer slicerLabels
I1018 11:01:26.960047 30062 net.cpp:434] slicerLabels <- label_s
I1018 11:01:26.960059 30062 net.cpp:408] slicerLabels -> label_s1
I1018 11:01:26.960080 30062 net.cpp:408] slicerLabels -> label_s2
I1018 11:01:26.960094 30062 net.cpp:408] slicerLabels -> label_s3
I1018 11:01:26.960108 30062 net.cpp:408] slicerLabels -> label_s4
I1018 11:01:26.960134 30062 net.cpp:408] slicerLabels -> label_s5
I1018 11:01:26.960146 30062 net.cpp:408] slicerLabels -> label_s6
I1018 11:01:26.960157 30062 net.cpp:408] slicerLabels -> label_s7
I1018 11:01:26.960168 30062 net.cpp:408] slicerLabels -> label_s8
I1018 11:01:26.960332 30062 net.cpp:150] Setting up slicerLabels
I1018 11:01:26.960345 30062 net.cpp:157] Top shape: 50 1 1 1 (50)
I1018 11:01:26.960355 30062 net.cpp:157] Top shape: 100 1 1 1 (100)
I1018 11:01:26.960362 30062 net.cpp:157] Top shape: 50 1 1 1 (50)
I1018 11:01:26.960371 30062 net.cpp:157] Top shape: 100 1 1 1 (100)
I1018 11:01:26.960378 30062 net.cpp:157] Top shape: 50 1 1 1 (50)
I1018 11:01:26.960386 30062 net.cpp:157] Top shape: 100 1 1 1 (100)
I1018 11:01:26.960395 30062 net.cpp:157] Top shape: 50 1 1 1 (50)
I1018 11:01:26.960403 30062 net.cpp:157] Top shape: 400 1 1 1 (400)
I1018 11:01:26.960409 30062 net.cpp:165] Memory required for data: 5454291600
I1018 11:01:26.960417 30062 layer_factory.hpp:77] Creating layer concatPool5s
I1018 11:01:26.960436 30062 net.cpp:100] Creating Layer concatPool5s
I1018 11:01:26.960445 30062 net.cpp:434] concatPool5s <- pool5_s1
I1018 11:01:26.960454 30062 net.cpp:434] concatPool5s <- pool5_s3
I1018 11:01:26.960464 30062 net.cpp:434] concatPool5s <- pool5_s5
I1018 11:01:26.960472 30062 net.cpp:434] concatPool5s <- pool5_s7
I1018 11:01:26.960481 30062 net.cpp:408] concatPool5s -> pool5_s_cat
I1018 11:01:26.960528 30062 net.cpp:150] Setting up concatPool5s
I1018 11:01:26.960541 30062 net.cpp:157] Top shape: 200 320 1 1 (64000)
I1018 11:01:26.960547 30062 net.cpp:165] Memory required for data: 5454547600
I1018 11:01:26.960552 30062 layer_factory.hpp:77] Creating layer concatLabels
I1018 11:01:26.960563 30062 net.cpp:100] Creating Layer concatLabels
I1018 11:01:26.960572 30062 net.cpp:434] concatLabels <- label_s1
I1018 11:01:26.960578 30062 net.cpp:434] concatLabels <- label_s3
I1018 11:01:26.960587 30062 net.cpp:434] concatLabels <- label_s5
I1018 11:01:26.960595 30062 net.cpp:434] concatLabels <- label_s7
I1018 11:01:26.960608 30062 net.cpp:408] concatLabels -> label_s_cat
I1018 11:01:26.960641 30062 net.cpp:150] Setting up concatLabels
I1018 11:01:26.960652 30062 net.cpp:157] Top shape: 200 1 1 1 (200)
I1018 11:01:26.960659 30062 net.cpp:165] Memory required for data: 5454548400
I1018 11:01:26.960681 30062 layer_factory.hpp:77] Creating layer silence
I1018 11:01:26.960696 30062 net.cpp:100] Creating Layer silence
I1018 11:01:26.960705 30062 net.cpp:434] silence <- pool5_s2
I1018 11:01:26.960712 30062 net.cpp:434] silence <- pool5_s4
I1018 11:01:26.960721 30062 net.cpp:434] silence <- pool5_s6
I1018 11:01:26.960728 30062 net.cpp:434] silence <- pool5_s8
I1018 11:01:26.960736 30062 net.cpp:434] silence <- label_s2
I1018 11:01:26.960743 30062 net.cpp:434] silence <- label_s4
I1018 11:01:26.960752 30062 net.cpp:434] silence <- label_s6
I1018 11:01:26.960757 30062 net.cpp:434] silence <- label_s8
I1018 11:01:26.960765 30062 net.cpp:150] Setting up silence
I1018 11:01:26.960772 30062 net.cpp:165] Memory required for data: 5454548400
I1018 11:01:26.960778 30062 layer_factory.hpp:77] Creating layer ip1_s
I1018 11:01:26.960798 30062 net.cpp:100] Creating Layer ip1_s
I1018 11:01:26.960806 30062 net.cpp:434] ip1_s <- pool5_s_cat
I1018 11:01:26.960816 30062 net.cpp:408] ip1_s -> ip1_s
I1018 11:01:26.961050 30062 net.cpp:150] Setting up ip1_s
I1018 11:01:26.961063 30062 net.cpp:157] Top shape: 200 12 (2400)
I1018 11:01:26.961071 30062 net.cpp:165] Memory required for data: 5454558000
I1018 11:01:26.961081 30062 layer_factory.hpp:77] Creating layer sigmoid_s
I1018 11:01:26.961091 30062 net.cpp:100] Creating Layer sigmoid_s
I1018 11:01:26.961099 30062 net.cpp:434] sigmoid_s <- ip1_s
I1018 11:01:26.961107 30062 net.cpp:395] sigmoid_s -> ip1_s (in-place)
I1018 11:01:26.961498 30062 net.cpp:150] Setting up sigmoid_s
I1018 11:01:26.961520 30062 net.cpp:157] Top shape: 200 12 (2400)
I1018 11:01:26.961529 30062 net.cpp:165] Memory required for data: 5454567600
I1018 11:01:26.961542 30062 layer_factory.hpp:77] Creating layer loss_s
I1018 11:01:26.961558 30062 net.cpp:100] Creating Layer loss_s
I1018 11:01:26.961566 30062 net.cpp:434] loss_s <- ip1_s
I1018 11:01:26.961575 30062 net.cpp:434] loss_s <- label_s_cat
I1018 11:01:26.961588 30062 net.cpp:408] loss_s -> loss_hash_s
I1018 11:01:26.961719 30062 net.cpp:150] Setting up loss_s
I1018 11:01:26.961731 30062 net.cpp:157] Top shape: (1)
I1018 11:01:26.961738 30062 net.cpp:160]     with loss weight 1
I1018 11:01:26.961763 30062 net.cpp:165] Memory required for data: 5454567604
I1018 11:01:26.961772 30062 layer_factory.hpp:77] Creating layer temporal_pool
I1018 11:01:26.961787 30062 net.cpp:100] Creating Layer temporal_pool
I1018 11:01:26.961796 30062 net.cpp:434] temporal_pool <- pool5_pool5_0_split_1
I1018 11:01:26.961803 30062 net.cpp:434] temporal_pool <- label_data_1_split_1
I1018 11:01:26.961820 30062 net.cpp:408] temporal_pool -> tmp_pool
I1018 11:01:26.961835 30062 net.cpp:408] temporal_pool -> merge_label
I1018 11:01:26.961935 30062 net.cpp:150] Setting up temporal_pool
I1018 11:01:26.961946 30062 net.cpp:157] Top shape: 30 320 1 1 (9600)
I1018 11:01:26.961956 30062 net.cpp:157] Top shape: 30 1 1 1 (30)
I1018 11:01:26.961962 30062 net.cpp:165] Memory required for data: 5454606124
I1018 11:01:26.961968 30062 layer_factory.hpp:77] Creating layer drop5
I1018 11:01:26.961983 30062 net.cpp:100] Creating Layer drop5
I1018 11:01:26.961992 30062 net.cpp:434] drop5 <- tmp_pool
I1018 11:01:26.961999 30062 net.cpp:395] drop5 -> tmp_pool (in-place)
I1018 11:01:26.962035 30062 net.cpp:150] Setting up drop5
I1018 11:01:26.962045 30062 net.cpp:157] Top shape: 30 320 1 1 (9600)
I1018 11:01:26.962052 30062 net.cpp:165] Memory required for data: 5454644524
I1018 11:01:26.962059 30062 layer_factory.hpp:77] Creating layer ip1
I1018 11:01:26.962072 30062 net.cpp:100] Creating Layer ip1
I1018 11:01:26.962080 30062 net.cpp:434] ip1 <- tmp_pool
I1018 11:01:26.962090 30062 net.cpp:408] ip1 -> ip1
I1018 11:01:26.962304 30062 net.cpp:150] Setting up ip1
I1018 11:01:26.962316 30062 net.cpp:157] Top shape: 30 12 (360)
I1018 11:01:26.962323 30062 net.cpp:165] Memory required for data: 5454645964
I1018 11:01:26.962330 30062 net.cpp:493] Sharing parameters 'ip1_w' owned by layer 'ip1_s', param index 0
I1018 11:01:26.962339 30062 net.cpp:493] Sharing parameters 'ip1_b' owned by layer 'ip1_s', param index 1
I1018 11:01:26.962363 30062 layer_factory.hpp:77] Creating layer sigmoid
I1018 11:01:26.962376 30062 net.cpp:100] Creating Layer sigmoid
I1018 11:01:26.962383 30062 net.cpp:434] sigmoid <- ip1
I1018 11:01:26.962393 30062 net.cpp:395] sigmoid -> ip1 (in-place)
I1018 11:01:26.962519 30062 net.cpp:150] Setting up sigmoid
I1018 11:01:26.962533 30062 net.cpp:157] Top shape: 30 12 (360)
I1018 11:01:26.962540 30062 net.cpp:165] Memory required for data: 5454647404
I1018 11:01:26.962546 30062 layer_factory.hpp:77] Creating layer loss
I1018 11:01:26.962561 30062 net.cpp:100] Creating Layer loss
I1018 11:01:26.962569 30062 net.cpp:434] loss <- ip1
I1018 11:01:26.962577 30062 net.cpp:434] loss <- merge_label
I1018 11:01:26.962587 30062 net.cpp:408] loss -> loss_hash
I1018 11:01:26.962689 30062 net.cpp:150] Setting up loss
…
